lenet5_model.pt (torch, 251646 bytes, 10 tensors)

conv1.weight f4 [6, 3, 5, 5]
000000 79 ee f5 bd 71 7a 1d be 41 25 1e 3e 62 88 ea bd
       -0.12008376 -0.15378739 0.15443899 -0.11451794
000010 16 ee 8b 3e d0 75 23 bc df 62 03 bf 2f a5 bf 3d
       0.27330083 -0.009976819 -0.5132274 0.09357678
000020 67 bd c1 be 9a 77 9d 3e 3b 77 43 3c 62 7f 12 bf
       -0.37839815 0.3075531 0.011930282 -0.5722562
000030 7d 6b b6 3e bd 71 6d be 12 29 1d 3d 5f ba 26 3d
       0.35628882 -0.23187919 0.038369246 0.04070508
000040 5a 18 9c bd 54 c1 90 3e f3 14 ab be 2b 9b e3 bc
       -0.07621832 0.28272498 -0.3341442 -0.02778395
000050 1e d4 54 bd 06 67 41 bc 9a 50 87 be da f7 65 bd
       -0.051960103 -0.011804348 -0.26428682 -0.056144573
000060 90 bb 8a 3e 86 27 49 3e 2a d4 cf 3d 36 4a a9 3e
       0.27096224 0.19643983 0.10147889 0.3306443
000070 2d 32 a4 be c7 01 4b bd dd a7 10 3e 7c 69 e1 bd
       -0.3206953 -0.049562242 0.14126535 -0.11006448
000080 0a 8e f4 3e ab 66 cd be 27 d8 1b 3e fb 7b 01 3f
       0.47764617 -0.40117392 0.15219174 0.50579804
000090 04 e0 5e bc cd 4d 6f 3f 34 c0 9e bd 75 34 b9 bc
       -0.013603214 0.9347809 -0.077515036 -0.022608021
0000a0 38 84 9e 3e 63 08 8b 3e 3b 82 22 3f 00 65 e3 be
       0.3096025 0.27154836 0.63479966 -0.44412994
0000b0 60 b7 97 be 86 74 06 be 2e 74 06 bd d4 c4 08 be
       -0.29632092 -0.13130388 -0.03282564 -0.13356334
0000c0 eb 36 59 be 97 2f 1c 3d ef 58 14 3d a7 53 1b 3d
       -0.21212356 0.038131323 0.036217626 0.037921574
0000d0 c2 b7 22 3e 36 d3 99 be 9b 66 3f 3d d2 63 c9 3c
       0.1589041 -0.30043954 0.04672871 0.02458373
0000e0 19 34 e3 be ae 4e d3 3d b2 cf 95 be 38 eb 73 3e
       -0.44375685 0.10317741 -0.2926002 0.23820198
0000f0 9f dd 31 3e 41 72 34 bf 6f 0f ad 3e 68 35 00 be
       0.17369698 -0.7048684 0.33800837 -0.12520373
000100 51 23 b6 3d 5b 43 1c 3d ef c0 23 be c8 72 69 3e
       0.08893455 0.038150173 -0.15991567 0.22797692
000110 71 db 92 be 21 3b 18 3e cc 47 3e bd a4 ec e3 bd
       -0.28683046 0.14866306 -0.04645519 -0.1112912
000120 b2 b1 53 be cb ba 43 3b 06 74 a1 3e f0 44 e7 bd
       -0.20673254 0.0029865976 0.3153383 -0.11292446
000130 4d be 79 be 8c fd ce bc e3 d7 79 bd 4c d1 82 be
       -0.24389 -0.025267385 -0.0609969 -0.25550306
000140 be 89 9f 3e 6d d7 5d 3e a1 e9 e7 3e 43 13 bc 3e
       0.31159776 0.2166421 0.45295432 0.36733446
000150 95 6a 27 3e 09 70 a9 3e cb cd 69 3e 31 4a 97 3e
       0.16349252 0.3309329 0.2283241 0.2954879
000160 2f e2 c3 3e f1 57 82 3e f4 37 6c 3e 33 0d 59 bd
       0.38258502 0.2545772 0.2306822 -0.052991103
000170 75 b7 23 3c e2 27 c1 3d ba c0 f7 3c aa 8c 6e be
       0.00999247 0.09431435 0.030243266 -0.23295847
000180 ee 17 0c bf 4b 8b b7 be c0 6e 06 bf 84 fc a0 be
       -0.54724014 -0.3584846 -0.5251274 -0.31442654
000190 70 8c 8f bc e8 2d ca 3d 36 7f 1d 3e 22 bd a4 3e
       -0.01752302 0.09872037 0.15380558 0.32175547
0001a0 93 49 91 bc d3 34 e0 3d 24 de 0f bd a2 3e 36 bd
       -0.017735278 0.109475754 -0.03512396 -0.044493325
0001b0 37 ca b5 bd b2 66 64 be 25 dd 07 3e 66 59 5d be
       -0.0887646 -0.223048 0.13267954 -0.21616134
0001c0 37 c5 f1 be d8 7f 76 be a2 5d 21 be c2 4e 31 3e
       -0.47220775 -0.24072206 -0.15758374 0.173152
0001d0 41 8a 04 be 34 51 99 be 82 2f 6b be 87 c7 92 bd
       -0.12943365 -0.29944766 -0.22967342 -0.07166963
0001e0 3b f8 22 be 7d 03 8e be 99 ea 10 be b8 9a 4b bd
       -0.15915005 -0.27737036 -0.14151992 -0.0497081
0001f0 77 a0 be 3d ea 6b 25 3e 5e 55 b9 3e 7a 0a 8b 3e
       0.0930795 0.16154447 0.36197942 0.2715643
000200 ae ea 71 3e 31 91 9b 3e 8a 77 56 bd 2d a3 17 3d
       0.2362468 0.3038421 -0.052360095 0.03702085
000210 72 c4 2b be 33 78 8e be e1 2e 0a be c0 37 ae 3d
       -0.16774157 -0.2782608 -0.13494445 0.08506727
000220 7b fc 78 be cb 19 d1 be ce cd de be 79 79 75 be
       -0.24315064 -0.4083999 -0.43516392 -0.2397212
000230 ba 12 68 3e f5 a1 9b bd d4 e8 d7 bd 0c ac 7a bd
       0.22663394 -0.0759925 -0.10542455 -0.061199233
000240 79 2f 93 3d 6e ba ec bc e0 6b 72 3d ad 29 f6 3d
       0.07186789 -0.02889749 0.05918491 0.12019668
000250 bc 84 b0 3e c6 46 ee 3e f1 1e 79 3e 5a db 7a 3e
       0.34476268 0.4653837 0.2432821 0.24497738
000260 3f 0d 08 3e 9d 45 91 3c c9 5d 2b 3e e5 df 08 3e
       0.13286303 0.01773339 0.16734995 0.13366659
000270 c8 65 d5 3d c5 8e 29 be a3 fd 98 be 79 85 89 bd
       0.10419804 -0.16558369 -0.2988101 -0.06714911
000280 c2 9b ec bc 87 52 9d be b0 17 74 be 41 21 b2 be
       -0.028882865 -0.30727026 -0.23837161 -0.34790996
000290 45 77 bc be 82 93 59 bd 07 f3 55 be 7e c6 8c be
       -0.36809745 -0.05311919 -0.20893489 -0.27495188
0002a0 7d f8 e1 be a9 d2 87 be 8a 41 89 3e 94 88 94 3d
       -0.44134894 -0.26527908 0.26807815 0.07252613
0002b0 21 ff b4 bd 75 0f 13 bd 80 f0 25 3d eb 36 54 3c
       -0.088377245 -0.035903413 0.04051256 0.012952547
0002c0 7b b7 38 be 9d 8e 66 be f9 25 5b bb 91 3a ef 3d
       -0.18038742 -0.2251534 -0.0033439382 0.116810925
0002d0 e3 33 27 3e b6 8d 51 bd 28 fc 16 3d 0d 55 be 3d
       0.16328387 -0.051160537 0.03686157 0.09293566
0002e0 d9 15 26 bd 70 ac 49 3d 10 5c 1e 3e 1c fc 16 3d
       -0.04054818 0.049236715 0.15464807 0.036861524
0002f0 da 8c b3 3d f3 7c c5 39 dc 44 45 bd cd e4 14 3d
       0.087671 0.00037667862 -0.048161373 0.036351014
000300 83 4c f1 3d 92 2b 2f 3e 39 df 99 bd bd 9a 1b be
       0.117821716 0.17106465 -0.075132795 -0.15195747
000310 42 b9 30 be af 8a 56 be e8 1c 12 be a6 71 e6 bd
       -0.1725817 -0.20951341 -0.1426884 -0.112521455
000320 0c 19 e7 be e4 c7 a8 be 1b 13 77 be 2c 24 6b 3e
       -0.45136297 -0.32965004 -0.24128382 0.22963017
000330 0c 8e 48 3e f3 9b 78 be cd 1d 58 3d b7 96 38 3e
       0.19585437 -0.2427824 0.052762795 0.18026243
000340 91 dc 83 3e 03 64 e5 3d 49 6b 08 bb 4d 9e 96 3e
       0.25754216 0.11200716 -0.00208159 0.2941765
000350 68 50 ea 3e 26 5e 13 3f 37 f3 b9 3e 47 1b ed 3b
       0.4576447 0.57565534 0.3631837 0.0072359177
000360 1c fd eb 3d e4 e7 8d 3e cd 4a ff 3e 70 6d c4 3e
       0.11522886 0.2771598 0.49861756 0.38364744
000370 21 26 a2 be 7d d4 a9 bc b4 e4 8a 3d 0a cc 8e 3e
       -0.31669715 -0.020731205 0.06781903 0.27890044
000380 74 8f 03 3e 9a a4 30 3e 5b d2 9a 3e 6f a4 44 3e
       0.12847692 0.1725029 0.30238613 0.19203351
000390 36 f6 68 3d 5d 0e 4f bc 50 dc 3b 3e e5 35 1b 3d
       0.05687543 -0.012637702 0.18345761 0.037893195
0003a0 a9 71 9b be 4c 2d a0 3c 62 fe d6 bd 62 b9 8d 3e
       -0.30360153 0.01955285 -0.104977384 0.27680498
0003b0 a0 c2 f5 bc 09 c8 d7 be 0b 14 ba 3e c9 4d 10 be
       -0.030000031 -0.42144802 0.36343417 -0.14092173
0003c0 6e 34 40 3e 17 3d a2 bd 64 8a ec be 06 3f cf 3e
       0.1877 -0.07921808 -0.46199334 0.4047777
0003d0 7d 6e d5 bd 98 e4 d9 bc e1 bd 88 bd 86 60 d6 be
       -0.104214646 -0.02659826 -0.066768415 -0.41870517
0003e0 e4 b5 7f 3e 96 af 56 bb eb 36 a7 bd 04 f5 0f be
       0.2497173 -0.0032758466 -0.08164772 -0.1405831
0003f0 f9 e4 a1 be 02 99 d6 bd 3f ff 18 3d 5b 7a 83 3e
       -0.31620005 -0.10478403 0.037352797 0.25679287

conv1.bias f4 [6]
000000 1d a5 c1 be 09 b5 86 bf 36 9b 40 bf c8 bc 2e bf
       -0.37821284 -1.0523998 -0.75236833 -0.6825681
000010 b5 94 97 bf b8 8f 3d bf
       -1.1842257 -0.7404742

conv2.weight f4 [16, 6, 5, 5]
000000 94 25 43 bc c6 c3 71 bb 5e e7 4b bb 2d 7a 84 ba
       -0.011910815 -0.0036890372 -0.0031113247 -0.0010107212
000010 54 e5 15 ba 73 6c 40 bb 3f c5 9b ba ec 38 12 bb
       -0.00057180715 -0.0029361516 -0.0011884345 -0.002231176
000020 00 d3 5d b7 6e a9 1a bb 62 bb 7c bb 6c 98 de b9
       -1.3221754e-05 -0.0023599523 -0.0038563837 -0.00042456703
000030 46 1b 3b ba 82 02 09 bb 1d 1d 77 ba 12 00 28 bb
       -0.0007137548 -0.0020906036 -0.00094266405 -0.0025634808
000040 08 f2 d9 ba 99 6f cc b9 81 a3 38 39 b4 65 9c ba
       -0.0016627917 -0.0003899306 0.00017608517 -0.0011932165
000050 c2 ab 64 bc b0 a8 de bb 5c 37 b9 bb 73 43 31 bc
       -0.013956966 -0.0067950115 -0.0056523513 -0.010819304
000060 fb c4 c6 bb d1 4b d8 bc 85 4d bf bc 93 9e a3 bc
       -0.0060659624 -0.02640334 -0.023352394 -0.019973075
000070 52 75 e1 bb 63 2f e9 ba f7 0f 11 bd 03 32 d3 bc
       -0.0068804407 -0.0017790612 -0.035415616 -0.025780683
000080 51 42 92 bb 36 64 04 bb 47 8c 69 bb 3b 63 ee bb
       -0.004463472 -0.0020201332 -0.003563659 -0.007275013
000090 51 28 cb 38 08 22 a7 b9 e4 3a b6 ba 1c 6f 22 bb
       9.687304e-05 -0.00031878077 -0.0013903049 -0.0024785465
0000a0 34 fb 2f bb 3b 06 1e bb 69 37 84 bb cf e6 6f bb
       -0.002685261 -0.00241126 -0.0040349257 -0.0036606079
0000b0 cb 14 f4 bb 72 5d 9e bc 93 6a aa bc c5 8c 17 bc
       -0.007448768 -0.019331668 -0.020802772 -0.009249871
0000c0 25 a5 81 bc c3 d8 0e bd 93 05 c4 bc ac 96 a5 bc
       -0.015825817 -0.03487469 -0.02392844 -0.020213448
0000d0 29 8f b9 bc dd 3b be bc 36 c0 bb bc 45 83 ae bc
       -0.022651272 -0.023221904 -0.022918802 -0.021302829
0000e0 38 ab a0 bc 67 12 9c bc 9f bd a6 bc 46 7f a0 bc
       -0.019612893 -0.019051744 -0.02035409 -0.019591939
0000f0 ca 97 6e bc d0 90 20 bc 5a 95 1d bc cd 53 46 bc
       -0.0145625565 -0.009800151 -0.009618128 -0.012104941
000100 0d f5 55 bc 09 60 83 bc f0 48 8a bc 08 e0 82 bc
       -0.013058913 -0.016037004 -0.016880482 -0.015975967
000110 29 29 8d bc c6 f7 8d bc 7d 30 09 bc 45 28 35 bc
       -0.01723154 -0.017330062 -0.008373377 -0.011056964
000120 0e f4 4c bc 55 d4 46 bc e0 4b 33 bc e0 06 da b8
       -0.012509359 -0.012135585 -0.010943383 -0.000103963306
000130 52 01 22 bb de 41 b7 bb fb c4 65 bb 6a f4 3c bb
       -0.0024720025 -0.005592569 -0.0035060036 -0.0028832206
000140 f0 bd ef bb 47 8b a6 bb 5a 47 b9 b9 a6 fd 97 ba
       -0.0073163435 -0.005082521 -0.0003533911 -0.0011595979
000150 46 9a 69 bb 85 00 03 bc 76 08 28 bb ee 5f b7 b9
       -0.0035644933 -0.007995729 -0.0025639809 -0.00034975953
000160 a9 c9 9b ba 74 98 4a bb 93 14 fe bb b7 cb 38 ba
       -0.0011885661 -0.0030913623 -0.0077539175 -0.0007049399
000170 d0 77 2c 3a 0f 53 e1 b9 19 a1 86 bb ae 5c 29 bc
       0.0006579133 -0.00042977228 -0.00410856 -0.010337038
000180 22 d9 5e bb fa 08 ba ba 24 9d 30 bb bb e4 ad bb
       -0.0034003933 -0.0014193349 -0.0026949132 -0.005306808
000190 92 c4 61 bc 16 06 8f bb fd f0 bf b7 38 75 47 bb
       -0.013779776 -0.004364739 -2.2881193e-05 -0.0030434858
0001a0 5a b6 f2 ba 06 e1 92 bb 10 70 c3 ba 37 b1 1d bb
       -0.001851748 -0.0044823913 -0.0014910717 -0.0024061927
0001b0 00 12 98 bb 1f f7 93 bb 89 5c 10 39 ed 36 73 3a
       -0.0046408176 -0.004515543 0.00013767382 0.0009277899
0001c0 63 5e f2 39 7f 5d 39 3a a2 8a 4b ba 38 a5 fa ba
       0.0004622816 0.0007071122 -0.00077644933 -0.0019122725
0001d0 9c 71 ea ba cf 0b c2 ba 40 3c ba ba 09 ab 63 bb
       -0.0017886641 -0.0014804545 -0.001420863 -0.0034739396
0001e0 04 10 ce b9 ef 63 9a ba 43 47 93 3c 3f 56 a9 3c
       -0.00039303314 -0.001177905 0.017978316 0.020671008
0001f0 1d 1d 2e bb 0f bb 93 bb 98 f9 97 3a 8b 1e 8c bb
       -0.0026567646 -0.004508383 0.001159477 -0.004276102
000200 43 1c cf bb ad ae a9 bb c1 56 17 ba 5e cb cf ba
       -0.0063205077 -0.0051782937 -0.000577312 -0.0015853455
000210 8d f3 4c 3b 7c 09 0b bb fa b8 4c bb ae 59 15 bc
       0.0031273097 -0.002121537 -0.0031238184 -0.00911562
000220 60 66 d1 bb 43 e0 94 ba 2f 71 89 ba b4 d1 5a bb
       -0.006390378 -0.0011358339 -0.0010486002 -0.0033389153
000230 7e 3d 60 bb b0 97 1e bc 31 9c f2 bb 5c 56 aa 39
       -0.003421634 -0.00967972 -0.0074038734 0.0003248927
000240 a6 fd 1a ba 62 2d 15 3b 12 0e 13 ba 71 d8 65 bb
       -0.00059124304 0.0022762646 -0.00056097016 -0.0035071636
000250 bc 16 0d 3a dc bc 66 3a 69 10 69 bd 94 95 2c bf
       0.0005382111 0.0008801946 -0.056900416 -0.6741574
000260 76 76 27 bf 5b 52 d6 be 52 d6 96 be 59 c4 91 bd
       -0.6541513 -0.41859707 -0.29460388 -0.071175285
000270 de 0f 44 be a0 fe 10 be 23 7e 2a be bd ff 95 bd
       -0.19146678 -0.14159632 -0.1664968 -0.07324169
000280 19 d9 f1 3d 9d 71 0c 3c 69 ff da bd 0b 08 f4 3c
       0.11808986 0.008572009 -0.10693247 0.029788991
000290 ed de 67 3d c4 9e b7 be 7c 3d 0c 3f e7 2b 2a 3d
       0.056609083 -0.35863316 0.5478132 0.041545775
0002a0 5f cf 81 3d f3 6d f7 bb ae 96 d6 ba 10 26 06 bd
       0.06338381 -0.0075509488 -0.001637181 -0.032751143
0002b0 ec a2 00 3f 18 e9 ab 3e c6 66 b5 3d 73 3c 4e 3d
       0.502486 0.33576274 0.08857493 0.050350618
0002c0 75 2b b6 bd ff 74 07 be 35 1b cc 3d 48 56 ec 3d
       -0.088950075 -0.13228224 0.09966127 0.11539894
0002d0 03 4a 34 3e 55 5e 28 3e 9d 90 ee 3d 02 d1 36 3e
       0.17606358 0.16442235 0.116486765 0.17853168
0002e0 3a 1a 19 3e ad 66 3a 3e c1 53 d1 3d f6 fc 91 3c
       0.14951411 0.1820323 0.10221053 0.017820816
0002f0 69 8c 0d 3e 5a 9c 50 be f3 69 60 3e e0 bc e2 be
       0.13823093 -0.20372143 0.21915416 -0.44284725
000300 73 f7 03 bf 1e cb 16 be 9c 12 b5 be be 31 b2 be
       -0.5154945 -0.1472592 -0.3536576 -0.34803575
000310 29 6a d2 bd c2 9b 1b bf bf 03 1d bf c7 ff 63 bf
       -0.10274155 -0.6078454 -0.6133384 -0.8906216
000320 03 c0 f6 3d 92 c4 a4 3e 3a 35 77 3e ed e6 ea 3c
       0.12048342 0.3218122 0.24141398 0.028674567
000330 9d fa 2f be 5a 13 49 be d3 d5 18 be e2 93 e6 bc
       -0.17185445 -0.19636288 -0.14925317 -0.028146688
000340 31 2b 01 be f6 a9 99 be 55 d1 79 bf 6f 6f 14 bf
       -0.12614132 -0.30012482 -0.9758504 -0.57982534
000350 2a b8 26 bf b9 c6 29 bf 0a 3a ee be a4 67 5d bf
       -0.6512476 -0.6631885 -0.46528655 -0.8648627
000360 48 e0 2c bf 37 92 17 bf 4c ea ed be b3 d2 35 bf
       -0.67529726 -0.5920748 -0.46467817 -0.71024626
000370 5b 9a 90 bf b5 8f 7c bf e5 e1 3c bf 58 1d ca be
       -1.1297106 -0.9865678 -0.7378219 -0.39475513
000380 20 e4 13 bf e7 cc 97 3d 7a 11 a2 bd e3 44 08 3d
       -0.57769966 0.07412129 -0.0791349 0.03326882
000390 f1 4f 4e 3e e8 77 d2 3c 4f 49 84 be 5c 5e c8 3e
       0.20147683 0.025691941 -0.2583718 0.3913449
0003a0 2f 9d e6 3d 79 e7 48 3e d3 b2 b4 be 5b 96 53 be
       0.11260449 0.1961955 -0.35292682 -0.20662825
0003b0 a6 45 1c 3b 39 80 b1 3e 1a 8f 75 be 52 12 db be
       0.0023845225 0.3466814 -0.2398037 -0.42787415
0003c0 c6 59 a8 3e e6 fc e6 bd 79 81 4e 3e 28 d0 42 be
       0.32880992 -0.11278705 0.20166577 -0.19024718
0003d0 be 30 f4 bd de 5d 76 3e 35 56 dc 3e a5 b5 27 be
       -0.11923359 0.24059245 0.4303452 -0.16377886
0003e0 61 16 44 3d 71 db 1f 3d 3f 8d 4d 3d 9d 2f 2f be
       0.047872905 0.039027635 0.05018353 -0.17108007
0003f0 26 c0 45 3d 09 62 86 3c 19 a4 76 3d 03 13 30 be
       0.04827895 0.016404169 0.06021509 -0.17194752

conv2.bias f4 [16]
000000 22 e2 83 bc 4a c7 ba 3f 16 58 e1 3f 13 c7 0e ab
       -0.01609904 1.4592068 1.7605007 -5.0724805e-13
000010 d8 23 d6 be 3a 4d 21 40 5e dc 84 3f 8b 90 46 bd
       -0.41824222 2.5203385 1.0379751 -0.04847769
000020 5e 8d e9 3d 70 0a 11 3f 14 fe a7 be 3a 0e 4a bd
       0.11403917 0.5665655 -0.32811034 -0.049329974
000030 5d 0b 26 bf f5 aa fb b0 52 31 5b bf 50 ab c8 bc
       -0.6486109 -1.8311243e-09 -0.8562213 -0.02449575

fc1.weight f4 [120, 400]
000000 72 65 10 00 4f c4 0d 80 65 03 0a 80 8e 29 0f 80
       1.50576e-39 -1.264284e-39 -9.19573e-40 -1.39244e-39
000010 2b 02 19 80 56 2d 0c 80 df 7a 08 00 e9 c0 08 80
       -2.296665e-39 -1.11829e-39 7.78762e-40 -8.03887e-40
000020 79 a2 0c 00 ae 4d 08 00 1f af 07 80 8b 21 0a 00
       1.16031e-39 7.6255e-40 -7.0567e-40 9.30388e-40
000030 51 11 1c 00 51 58 22 00 93 e8 08 00 61 4d 07 80
       2.577606e-39 3.154089e-39 8.18116e-40 -6.70607e-40
000040 31 bc 09 80 75 fa 0c 00 70 47 0a 00 58 2b 10 00
       -8.9403e-40 1.191873e-39 9.43982e-40 1.484917e-39
000050 d6 24 0a 80 2c b0 11 80 6d 21 09 00 6a 71 0e 80
       -9.31569e-40 -1.624402e-39 8.3851e-40 -1.326382e-39
000060 57 88 0f 00 a3 cf 87 bb 2e 46 09 3c 8e c7 af ba
       1.426442e-39 -0.0041446253 0.008378549 -0.0013410912
000070 4c 35 39 3a a7 07 56 bb 4c 13 5b bd 4f 3c 14 bd
       0.0007065132 -0.003265837 -0.0534852 -0.036190327
000080 98 4d f9 bc ac 1c 01 bd 52 c3 ac bc 74 63 50 bd
       -0.030432507 -0.031521484 -0.02108923 -0.050876096
000090 81 e2 36 bd ab 83 11 bd a8 c7 0a bd 41 b5 15 bd
       -0.044649605 -0.03552596 -0.033881813 -0.03654981
0000a0 cc c0 55 bd a7 dc 8f bb 51 1f 5a bd c7 6d 61 bd
       -0.05218582 -0.0043903175 -0.053252522 -0.055036332
0000b0 2e 90 94 bc 50 cd 30 bd b0 9a a9 bc d0 d6 7a bc
       -0.018135156 -0.04316455 -0.020703644 -0.015310004
0000c0 25 a5 5c bd 82 f8 51 bd 69 12 7e bd 17 43 7b bc
       -0.05386843 -0.051262386 -0.062029276 -0.01533582
0000d0 cd 0b ce bc 17 0d 8f 3c 12 a1 92 bd 5c cd e8 bc
       -0.025152111 0.017462296 -0.07159628 -0.028418235
0000e0 5a 8e 48 bc 2c 63 b1 bb c2 70 ba bc 97 dc 01 3c
       -0.0122409705 -0.0054134335 -0.022758845 0.007926128
0000f0 9c 31 e7 bc 85 64 35 bd 90 cf 30 3b 1e b4 db 3b
       -0.028221898 -0.044285316 0.0026979186 0.0067048213
000100 03 5a 1a 3c c0 35 88 3c 06 cc 8d bd 2e 9a 76 3b
       0.0094208745 0.016627192 -0.0692368 0.003762852
000110 47 98 16 bb 2a 8a 8c bb 3d 29 be 3c cc 92 b0 bd
       -0.0022978948 -0.0042889314 0.023213023 -0.08621749
000120 15 c9 59 3b 63 7e d1 ba 98 2a a5 ba d6 0f 25 80
       0.0033231426 -0.0015983101 -0.0012601195 -3.403594e-39
000130 b4 ff 20 80 9a 9f 01 00 b4 4d 13 00 f2 18 1a 80
       -3.030465e-39 1.4909e-40 1.772749e-39 -2.396672e-39
000140 76 de 0d 80 65 20 1e 00 ab 7d 12 00 3c e1 0e 00
       -1.273665e-39 2.766686e-39 1.69812e-39 1.366496e-39
000150 5c f5 09 00 dc c5 04 80 c3 29 0a 80 e8 6b be 81
       9.14538e-40 -4.3832e-40 -9.33336e-40 -6.9949815e-38
000160 f4 6a 1b 80 a0 b7 d7 81 4d ee 18 00 57 46 10 00
       -2.517926e-39 -7.9242016e-38 2.289538e-39 1.494601e-39
000170 a1 f2 1c 80 b1 41 1b 00 f7 49 16 80 db 0e 09 00
       -2.658433e-39 2.503124e-39 -2.046915e-39 8.31849e-40
000180 ab 2a 1c 80 22 1f 20 80 17 49 15 80 6e 3f 04 80
       -2.5867e-39 -2.949904e-39 -1.954765e-39 -3.90096e-40
000190 f6 63 59 bc 0e e2 8e bc 05 28 b8 b7 b5 f0 8e b7
       -0.013268461 -0.017441776 -2.1953145e-05 -1.7039807e-05
0001a0 d7 19 ab 8c de 38 40 38 82 c5 04 bd ba 80 39 bb
       -2.6362273e-31 4.582933e-05 -0.03241492 -0.0028305487
0001b0 82 45 9c b7 c1 fa c2 36 e7 1b 2b bc c3 f7 07 bc
       -1.8629016e-05 5.810842e-06 -0.010443664 -0.008298817
0001c0 52 66 68 39 7c 98 bc bb 2d 2c bb 39 7d 45 8e bb
       0.00022163361 -0.0057554822 0.00035700333 -0.0043417797
0001d0 90 34 57 bc 07 6e b3 bb a4 e0 ca 3b 22 bb 40 bc
       -0.0131350905 -0.0054757628 0.00619133 -0.011763366
0001e0 8f 0d 47 3a 26 e4 d6 bc 4b 79 d1 b9 64 bf 20 3b
       0.0007593268 -0.026231837 -0.00039953957 0.002452814
0001f0 53 a9 bf 3a 92 b5 bf 3c 7f e4 ed bb f8 f9 31 bc
       0.0014622606 0.02340201 -0.007259905 -0.01086282
000200 d3 73 c0 3b d7 41 2d bd ff cb c4 bc 64 99 d0 bc
       0.0058731823 -0.042299118 -0.024023054 -0.025463767
000210 9b 92 12 bd 5f 74 c7 bc 1a 31 7f bc a7 91 8f bd
       -0.035784345 -0.024347482 -0.015575672 -0.07010203
000220 c3 9a 28 bd a6 8e 3e bd 5f 4f 34 bd db ac 5d bd
       -0.041163217 -0.04652276 -0.044021007 -0.054119926
000230 dc b4 a0 bc eb 03 7c bc 79 92 89 bc 43 2b 0a bd
       -0.01961749 -0.0153817935 -0.016793476 -0.033732664
000240 c7 f1 24 bd 56 cf 34 3c 96 c9 9d 3c 3f 15 1b 3c
       -0.04026964 0.011035761 0.019261163 0.009465515
000250 ba c4 3c bb b6 03 5a bd 48 ea 4f bd 55 21 55 bd
       -0.0028803782 -0.053226195 -0.050760537 -0.05203374
000260 0a 88 46 bd 78 6e 43 bd 0b 8e e3 bc c1 67 62 bd
       -0.04846958 -0.047712773 -0.027777692 -0.05527473
000270 1b 84 68 bd ca 74 6f bd f7 6b 7c bd 42 09 7b bd
       -0.05676661 -0.058460988 -0.0616264 -0.061288126
000280 55 5a 86 ba 8f 87 53 bd c1 9e 82 bd 2c 47 87 bd
       -0.001025031 -0.05164295 -0.06377936 -0.06605372
000290 fa 30 77 bd 90 eb 10 bd 39 d7 ec bc a7 ae 85 bd
       -0.060349442 -0.0353809 -0.02891122 -0.06527453
0002a0 f0 8b 82 bd de 25 85 bd 06 7b 86 bc 81 62 cd bb
       -0.06374347 -0.06501363 -0.016416084 -0.006267846
0002b0 92 91 c1 bb 07 be e2 bb 39 95 a0 bd 03 b1 44 1f
       -0.005907246 -0.0069196257 -0.07840962 4.1651035e-20
0002c0 4f ff 7a a5 4a 08 56 a7 b1 e5 1c a8 37 9b be 24
       -2.1770545e-16 -2.970296e-15 -8.709546e-15 8.266231e-17
0002d0 ee 04 01 10 69 fb 00 95 81 9c bd a6 b9 7f 50 98
       2.5444562e-29 -2.6047722e-26 -1.315693e-15 -2.6947853e-24
0002e0 d6 04 54 05 2d 50 05 00 e1 45 62 88 ee f6 3f 9b
       9.96908e-36 4.87939e-40 -6.8091543e-34 -1.5878937e-22
0002f0 e2 af 15 80 41 e3 0f 0d dc bb 00 00 84 68 1b 00
       -1.99164e-39 4.4338824e-31 6.7391e-41 2.517052e-39
000300 eb 30 00 80 c2 9b 59 2c 6e 21 94 36 09 76 24 00
       -1.7548e-41 3.0924018e-12 4.4146354e-06 3.348421e-39
000310 f7 e9 21 0c 70 57 7d 85 53 dc b6 2c 99 f8 94 33
       1.2473395e-31 -1.19120626e-35 5.197212e-12 6.937007e-08
000320 cf a4 0d 3a 8d af 87 bc 1d 77 3d bc a7 be 89 ba
       0.00054032815 -0.016563201 -0.011564043 -0.0010509089
000330 29 72 9f 38 5b ce 22 ba 57 dc 64 bd e1 20 9a bd
       7.602975e-05 -0.0006210559 -0.055874195 -0.075258024
000340 e4 1f 08 bc e9 37 81 ba 66 b3 c6 3b 37 23 88 bc
       -0.008308385 -0.0009858581 0.0060638664 -0.016618354
000350 d4 f2 7e bc e2 c4 23 3c fd 6a f0 bc d6 12 94 bb
       -0.015560824 0.009995671 -0.029347891 -0.004518847
000360 54 4e a5 bc d8 75 4a bc bf 9e b2 bb 7b 1b f5 bc
       -0.020178951 -0.012357198 -0.005451053 -0.02992033
000370 89 60 96 39 97 3b 57 bc bf 1f 17 bd 71 e0 51 3b
       0.00028682154 -0.013136766 -0.03689551 0.0032024647
000380 59 3a 84 bc ee 2f 80 bb 5c 38 79 bd 32 a9 de bb
       -0.016141104 -0.0039119637 -0.060844764 -0.006795072
000390 0a 95 4f bc ba 7d 12 bd 77 26 73 bd 88 2c 29 bd
       -0.012669811 -0.035764433 -0.059362855 -0.041302234
0003a0 94 0a b8 bb cf af 0a bd d9 00 4c bd 9c e5 f6 bc
       -0.0056164954 -0.03385907 -0.049805496 -0.030138783
0003b0 09 6a 16 bd c4 14 c2 3b 0f 14 c2 3c 39 62 21 bd
       -0.036722217 0.0059228856 0.023691205 -0.039400313
0003c0 df c6 6d bd c6 ec 41 bb 1f 0a f8 3b 3d 6a 48 bd
       -0.058050986 -0.002959059 0.007569566 -0.04892944
0003d0 37 6f 26 bd e1 a9 86 bc 92 57 80 bd 0d e8 4a bd
       -0.040633406 -0.016438426 -0.06266703 -0.049537707
0003e0 d6 b3 1c bc 63 ec 00 bd 14 48 08 bd 93 7c be bb
       -0.009564361 -0.031475436 -0.033271864 -0.0058131902
0003f0 32 58 5b bd bc b9 a4 bb cd 33 10 bd 83 3d 71 bc
       -0.053550906 -0.005027024 -0.03520565 -0.014724138

fc1.bias f4 [120]
000000 2f 9e 24 bd 56 ff 23 3e b3 f2 00 80 0f 4b 67 bd
       -0.040189918 0.16015372 -8.7064e-41 -0.056468066
000010 aa 10 63 bc 36 75 6c bd 03 79 33 be e3 39 e0 bd
       -0.0138589535 -0.05772897 -0.17526631 -0.10948541
000020 75 d0 bf b3 f1 b6 c3 3d 78 20 8a 3d 26 d3 b1 bd
       -8.932049e-08 0.09556378 0.06744474 -0.086828515
000030 74 7a 0d 00 3f 91 2f bd e6 98 87 3c 48 69 cd bc
       1.23779e-39 -0.042863127 0.0165524 -0.025074616
000040 b4 93 20 00 dc d6 9c bd 0c b7 07 a0 b7 1f 71 bc
       2.991722e-39 -0.07658169 -1.149551e-19 -0.014717034
000050 71 ec 16 bd 29 25 41 be f9 e0 13 bb 04 b1 1e 3d
       -0.03684658 -0.18861832 -0.0022564514 0.038743034
000060 7c dd 76 ba fa 39 11 bd ad 4f d0 3d 26 57 82 be
       -0.0009417159 -0.03545568 0.10171447 -0.25457114
000070 ae 82 0e bf e9 34 b5 bc e8 e3 0d bc 01 7a a0 bc
       -0.5566815 -0.022119956 -0.008660294 -0.019589426
000080 41 9b 44 3e 8d 32 e9 3c 84 dd 47 be 75 ca 5d bd
       0.1919985 0.028466487 -0.19518095 -0.054148156
000090 c8 77 4e ac 5b e8 d5 bc e8 f8 43 be a8 33 8d b9
       -2.9340853e-12 -0.026111772 -0.19137919 -0.00026932103
0000a0 8c eb 9e bc 06 45 32 b8 3c 60 81 bb 7b f0 2c bd
       -0.019399427 -4.250279e-05 -0.0039482396 -0.042221528
0000b0 ef 27 1d b5 28 6f 5d bd fd 39 87 3f db ab 85 bd
       -5.854517e-07 -0.054061085 1.0564572 -0.065269195
0000c0 31 de ab 3f 49 46 e2 bc d5 8f 0a 00 ab 2a 17 bc
       1.3427182 -0.027621405 9.69952e-40 -0.009226481
0000d0 d7 56 70 bc 65 43 4e 3e c1 5b 30 bd 64 52 c1 3e
       -0.014669142 0.20142896 -0.043056253 0.37758172
0000e0 7d c9 8c b9 0a df 02 80 23 79 5f bd 0a c1 e1 be
       -0.00026853 -2.63682e-40 -0.054558884 -0.4409259
0000f0 e6 35 6e 3c eb eb b3 a8 89 22 13 80 41 3b 0f bd
       0.014539218 -1.9975305e-14 -1.757263e-39 -0.03496862
000100 9d 11 aa bc 32 4c a3 bc 1a 40 52 3e c8 2f 68 bd
       -0.020760352 -0.019933794 0.20532265 -0.056686193
000110 81 20 df bd 8e fd 1b 00 3b 01 af bc a1 21 0a bc
       -0.108948715 2.570517e-39 -0.021362891 -0.008430869
000120 00 85 db bb 5e 3f 07 80 8e e9 76 3f 27 07 89 bd
       -0.0066992044 -6.6558e-40 0.96450126 -0.06690817
000130 89 b7 ac bd 14 75 9c bd 56 88 52 bd b5 2e 9b a8
       -0.08433444 -0.076395184 -0.05139955 -1.7228713e-14
000140 68 44 a0 bf a3 1a 68 be 8d 22 e8 3e 67 3b 6e 3e
       -1.2520876 -0.22666411 0.4533886 0.23264848
000150 70 55 ea 3e 42 ee 0d 00 5a 70 a0 3f 85 20 90 3e
       0.4576831 1.279332e-39 1.2534287 0.2814981
000160 45 c1 44 20 ea 05 4c bd 16 39 38 be 03 82 03 3f
       1.6665793e-19 -0.049810328 -0.17990527 0.5137026
000170 a9 e9 08 3f 36 7c 69 3c a5 e9 bb ba 8a e5 83 02
       0.5348154 0.014250806 -0.0014336599 1.938047e-37
000180 e0 76 f0 bc ce d7 16 3f d7 25 64 bd 69 cc b3 3d
       -0.029353559 0.5892304 -0.05570015 0.087792225
000190 49 76 ac b3 f7 2d 36 bd 78 91 a9 bb 12 d0 05 3e
       -8.03089e-08 -0.04447743 -0.005174812 0.13067654
0001a0 eb b6 4a bd ba 93 17 be 78 da 21 3f 74 f6 03 00
       -0.04949085 -0.14802447 0.6322398 3.63917e-40
0001b0 3a 58 7d be 40 3d 03 80 c0 85 80 bc 8f df 52 bd
       -0.24740687 -2.97479e-40 -0.015688777 -0.051482733
0001c0 17 c9 47 b9 20 cc 0c bd f9 6d 91 bd b9 35 0b 80
       -0.0001905303 -0.034374356 -0.07101054 -1.029463e-39
0001d0 58 49 46 bd bb 19 67 3e 80 53 7d bd 0f 3e 79 3e
       -0.04840979 0.22568409 -0.06184721 0.2434008

fc2.weight f4 [84, 120]
000000 45 cc 0d 80 a2 60 e3 3a 94 c2 0f 00 68 eb a2 2e
       -1.26714e-39 0.0017347524 1.447334e-39 7.4087236e-11
000010 d3 b5 0b 00 9f ad da 3c 6d 14 ea 3d 54 69 0d 00
       1.075417e-39 0.026694117 0.11429677 1.231646e-39
000020 de 27 14 80 ab 96 7d 3d 79 a0 8b bd aa ca 4a bd
       -1.851012e-39 0.061911266 -0.06817717 -0.04950968
000030 c2 85 e1 81 2f 64 02 80 b7 a4 82 bd 9f 8b 08 80
       -8.284388e-38 -2.1961e-40 -0.06379073 -7.8477e-40
000040 a5 b5 05 00 52 d7 80 bd 0e db 0b 00 f5 02 d5 3d
       5.24339e-40 -0.06291069 1.088772e-39 0.10400955
000050 5a f1 07 80 94 15 09 bd b1 a3 08 00 c0 7c 57 bd
       -7.29429e-40 -0.033467844 7.93405e-40 -0.052609205
000060 20 76 09 80 1e 65 08 80 40 b3 1d 3d bd d8 9e bd
       -8.68895e-40 -7.70958e-40 0.038501024 -0.07756183
000070 3f f7 ce bd e0 60 0a 00 ce 70 06 80 4c 52 11 00
       -0.10105752 9.53107e-40 -5.9148e-40 1.590726e-39
000080 47 d6 cd 3d 9b 10 88 3d fe 1e 6d bd 37 68 6c 3d
       0.10050636 0.06643792 -0.057890885 0.057716575
000090 40 52 0b 80 3a 28 f8 3c 0d 84 9b bd 38 0a 03 80
       -1.039696e-39 0.030292619 -0.07593546 -2.79172e-40
0000a0 32 fc 20 3d a6 5c 0b 80 52 57 14 00 75 b0 0c 00
       0.039303012 -1.043426e-39 1.868035e-39 1.165327e-39
0000b0 84 09 04 80 21 f2 3d 02 8a b2 03 bd f7 ed 7c bd
       -3.70756e-40 1.3955015e-37 -0.03215269 -0.06175038
0000c0 1b f0 95 bd 13 b0 16 00 4a d2 08 80 e8 3f 15 00
       -0.07321187 2.083544e-39 -8.10121e-40 1.95147e-39
0000d0 e3 2a 07 3c d8 d1 ec bc dd bf 08 80 88 1f 2d 3d
       0.008249971 -0.028908655 -8.03512e-40 0.0422664
0000e0 44 b2 0c 00 74 86 14 00 37 29 23 80 68 53 8d bd
       1.165976e-39 1.884943e-39 -3.229027e-39 -0.06900674
0000f0 6a fa 02 bd a8 22 10 00 d4 6b 0c 80 3d 22 09 00
       -0.031977095 1.4818e-39 -1.140707e-39 8.38802e-40
000100 68 b0 06 3e 77 4f 08 80 aa 43 56 3c 79 31 55 b3
       0.13153231 -7.6319e-40 0.013077656 -4.9637922e-08
000110 05 49 dd bc 4a d9 0f 00 22 a8 05 00 cd db 08 00
       -0.027012357 1.455481e-39 5.19492e-40 8.13534e-40
000120 0b 6d 04 80 e8 22 08 80 74 71 6c bc e9 92 b5 bd
       -4.06459e-40 -7.47206e-40 -0.014431346 -0.088659115
000130 34 42 e7 00 be 66 47 3b a2 99 05 00 fd 2d 08 80
       2.1237749e-38 0.003042623 5.1429e-40 -7.51181e-40
000140 4d 54 2c bd ec ba 87 3d d3 78 84 bd cc 92 c8 bc
       -0.042072583 0.066274494 -0.06468358 -0.02448406
000150 bc a8 f9 bd 23 d3 0f 00 ed cf aa 3c ac 62 89 bc
       -0.12190387 1.453274e-39 0.0208511 -0.016770683
000160 45 79 13 00 ad 8a 80 bd 2f c2 91 3c a2 ea 1e ba
       1.788378e-39 -0.0627645 0.01779279 -0.00060621847
000170 3d 9c c6 bd 52 97 7e 3c 23 3b 0f 00 55 c2 06 00
       -0.09697769 0.015539007 1.398747e-39 6.20726e-40
000180 7a 60 67 bd 9e fd 8b bd 6a 29 7e bd ed 86 f3 3c
       -0.05648849 -0.06835483 -0.062051214 0.029727424
000190 83 81 1b 80 f4 4a 0c 80 e5 39 0b 00 e1 12 b9 bd
       -2.526018e-39 -1.128914e-39 1.030959e-39 -0.09036804
0001a0 98 14 48 bd 10 4d ce 3c 07 70 d5 bd a7 23 07 80
       -0.048847765 0.02518323 -0.10421758 -6.55638e-40
0001b0 27 f2 bb 3d fa d7 08 80 11 ef 0b 80 30 cb 75 3d
       0.09177046 -8.12162e-40 -1.095951e-39 0.060008228
0001c0 e9 fc 09 80 70 61 00 80 6f 91 cf bc 9e 5b 0b 00
       -9.17247e-40 -3.4954e-41 -0.025337903 1.043057e-39
0001d0 d6 97 08 80 bc c2 f6 bd f4 ec 6d bd fc 31 cf bd
       -7.89152e-40 -0.120488614 -0.058087304 -0.10116956
0001e0 87 7e 0b 00 f6 16 6b 84 40 56 0d 80 ef 5e 06 80
       1.05558e-39 -2.763466e-36 -1.224802e-39 -5.85069e-40
0001f0 c9 60 00 80 4a 99 0c 80 a0 0b 11 00 1f 9e 03 00
       -3.472e-41 -1.157016e-39 1.565374e-39 3.3223e-40
000200 ad 35 0b 00 54 87 08 80 85 36 0e 80 0e 27 13 00
       1.029446e-39 -7.8323e-40 -1.305255e-39 1.758885e-39
000210 d1 ae 13 80 2c 78 0a 00 22 4b 14 00 7b 5f 0f 00
       -1.807587e-39 9.61465e-40 1.863662e-39 1.411784e-39
000220 e6 5c 0b 80 3c 0f 0a 80 3c ae 1c 80 7d eb 0c 80
       -1.043516e-39 -9.2382e-40 -2.633897e-39 -1.186503e-39
000230 27 1f 0f 00 e2 76 8e bc cb e4 0b 00 61 03 14 80
       1.388708e-39 -0.017390672 1.092266e-39 -1.837922e-39
000240 41 62 05 80 b7 a2 0b 80 80 48 ac 82 11 7c 09 80
       -4.94424e-40 -1.068562e-39 -2.5314742e-37 -8.71026e-40
000250 37 b7 b6 bc ee 2e 0b 00 87 63 07 80 dc 5e 1c 00
       -0.02230416 1.027026e-39 -6.78552e-40 2.605423e-39
000260 76 0b ad 86 9a f0 b2 b6 18 10 09 83 45 b2 0c 80
       -6.509221e-35 -5.332823e-06 -4.0279156e-37 -1.165977e-39
000270 f8 75 0a 80 2a da 0d 80 a4 ed 37 86 a0 27 09 00
       -9.60674e-40 -1.272124e-39 -3.4593065e-35 8.40734e-40
000280 85 53 06 00 96 d9 06 80 5f ab 0d 80 2c fb 77 82
       5.80974e-40 -6.29068e-40 -1.255338e-39 -1.8218777e-37
000290 0a d8 0b 80 ca 83 04 80 e3 b5 f0 bb c5 cf 04 80
       -1.08769e-39 -4.14619e-40 -0.0073459013 -4.41876e-40
0002a0 ed 8a 0d bc 0f 69 0e 00 0a ad 07 80 ca 87 19 80
       -0.0086390795 1.323385e-39 -7.04923e-40 -2.3446e-39
0002b0 e6 e6 0a 00 61 23 e4 85 be e9 02 80 4d 2c 4d 8c
       1.001186e-39 -2.1454013e-35 -2.67522e-40 -1.5805957e-31
0002c0 6c d2 0a 80 89 06 0b 00 fa 26 0e 80 8f 8e 91 bc
       -9.9384e-40 1.012535e-39 -1.299679e-39 -0.017768173
0002d0 3f ac 08 00 8b 96 0c 00 28 94 03 80 df 25 0d 00
       7.96474e-40 1.15603e-39 -3.28655e-40 1.207447e-39
0002e0 24 81 19 80 0a ce 09 00 df ae 09 80 ab a9 23 00
       -2.342214e-39 9.00432e-40 -8.89251e-40 3.275108e-39
0002f0 4c e8 06 00 ed f9 1f 80 b7 7c 02 80 93 70 17 00
       6.34345e-40 -2.936557e-39 -2.2841e-40 2.1526e-39
000300 d3 cf 0e 80 66 ae 0c 00 be f7 7a 86 66 50 0c 80
       -1.36025e-39 1.164588e-39 -4.7201786e-35 -1.130867e-39
000310 57 79 05 80 f0 88 15 bc 70 5b 14 80 ff b3 14 80
       -5.02706e-40 -0.009126887 -1.869512e-39 -1.90128e-39
000320 88 37 09 bb 35 b3 0b 80 c5 e5 05 82 86 57 1b 8c
       -0.002093764 -1.074478e-39 -9.837237e-38 -1.1967104e-31
000330 8a 9f 18 b6 05 f4 08 00 1a c9 20 86 c0 59 33 85
       -2.274263e-06 8.22222e-40 -3.0240401e-35 -8.433024e-36
000340 8c 28 0c 80 59 19 00 80 e0 7e 02 00 84 5a 33 82
       -1.116571e-39 -9.093e-42 2.29185e-40 -1.317682e-37
000350 c7 c5 d9 ba da 6b b4 87 c7 d7 1b 00 00 e8 11 00
       -0.0016614728 -2.714678e-34 2.556965e-39 1.64443e-39
000360 24 fd 06 80 0e 71 0c 00 c1 ac 0b 00 96 55 1b b6
       -6.41823e-40 1.142582e-39 1.072163e-39 -2.3146617e-06
000370 cd ab 00 00 0c 5a 00 80 eb 65 03 00 65 d8 a6 84
       6.163e-41 -3.2303e-41 3.12068e-40 -3.922514e-36
000380 91 1e 01 80 28 87 04 80 7d da a0 86 53 1f 11 80
       -1.028e-40 -4.15827e-40 -6.050635e-35 -1.57244e-39
000390 a2 76 36 01 99 79 0a 80 06 e6 0c 80 0d fd 01 87
       3.3513235e-38 -9.61976e-40 -1.184543e-39 -9.779246e-35
0003a0 c1 96 0d 80 0c b4 0c 80 b7 85 1b 80 ce 59 0b 00
       -1.247942e-39 -1.166615e-39 -2.527526e-39 1.042406e-39
0003b0 c1 7f 0d 80 8f 17 0a 00 17 f7 03 80 f2 29 0a 80
       -1.239691e-39 9.26806e-40 -3.64146e-40 -9.33402e-40
0003c0 cb 8d 0d 80 a8 fd 4e bc b7 6a 09 80 ac 74 0d 00
       -1.244727e-39 -0.012633719 -8.64802e-40 1.235715e-39
0003d0 37 e6 24 80 f6 9a 12 80 59 13 c8 bc 7e 38 84 90
       -3.388663e-39 -1.708628e-39 -0.024423288 -5.215186e-29
0003e0 75 a7 0a 00 39 bf 65 bc d3 11 29 3b 20 7d 43 b7
       9.78427e-40 -0.014022642 0.0025797978 -1.1652039e-05
0003f0 b2 21 0c 80 0a 4c 04 80 69 22 0d 80 71 1f 10 80
       -1.114114e-39 -3.9462e-40 -1.206205e-39 -1.480647e-39

fc2.bias f4 [84]
000000 a0 61 9a bd 01 a7 57 ab ba c0 dd bc 1a 0a f2 3c
       -0.07538152 -7.661511e-13 -0.027069438 0.029545832
000010 8b d5 1e be 33 44 08 80 83 63 0c 80 f9 c1 8d ba
       -0.15511148 -7.59149e-40 -1.137724e-39 -0.0010815255
000020 45 79 42 be 01 f7 89 be db a4 06 be da 76 6a bd
       -0.18991573 -0.26946262 -0.13148825 -0.057242252
000030 b5 10 17 bd ed f5 b8 3f c0 52 18 be ec d6 9b 3f
       -0.036881167 1.445005 -0.14875317 1.2174964
000040 12 d1 3a be 20 33 56 be 42 c7 11 be ae 72 7d bc
       -0.18243816 -0.2091794 -0.14236167 -0.015469236
000050 df 9a 28 be 72 cd 5f bd ab 08 6f be 99 90 05 be
       -0.16465329 -0.054639287 -0.2334315 -0.13043441
000060 6d 90 94 bd b6 0b 0c 80 38 ba 78 bb b6 d5 cf bd
       -0.072541095 -1.106227e-39 -0.0037952792 -0.10148184
000070 7d 3e 13 3f 51 82 27 bb 08 12 5b ba 91 bd 2a b9
       0.57517225 -0.0025559852 -0.0008356874 -0.00016283082
000080 b2 1f 8e bd 90 9e 88 be 9c b0 c0 3d 51 cf 02 af
       -0.06939639 -0.26683474 0.094086856 -1.1897085e-10
000090 df 3b cc bd c7 87 08 be dd 7e c7 bd f3 6c d3 3f
       -0.09972357 -0.13333045 -0.09740994 1.6517624
0000a0 1b bf 40 16 26 d1 2e 3f 7a 50 65 be 9c 0b bd bd
       1.5569939e-25 0.68287885 -0.2239398 -0.0923073
0000b0 af 1c bc bd 33 94 b4 3e d6 42 0d be ee cb fc 3f
       -0.091851585 0.35269317 -0.13795027 1.9749734
0000c0 ed 8b bf bd f3 06 c0 08 29 66 b4 be c6 2b 6c bd
       -0.093528606 1.1557213e-33 -0.35234192 -0.057658933
0000d0 0a ee 51 bd 92 28 9b 3e 57 f1 d4 ba 76 85 22 9c
       -0.051252402 0.3030439 -0.0016246241 -5.37738e-22
0000e0 d6 f7 ff ad 7c 1a 21 bc 0e ad 5e bc 77 1a a0 b5
       -2.9100205e-11 -0.0098329745 -0.013591064 -1.1928631e-06
0000f0 f4 d6 4b be 83 77 e0 3f 3c 21 20 a8 b3 b7 96 bd
       -0.19906217 1.7536472 -8.888991e-15 -0.073592566
000100 1d 7c 1f be 27 41 32 be ac 11 37 3f 18 1c 0e 80
       -0.15574689 -0.17407666 0.7151134 -1.295775e-39
000110 49 bc 22 be 35 44 f4 bd bf 69 54 b8 5c 63 5b be
       -0.15892138 -0.11927072 -5.0643222e-05 -0.21424621
000120 2c a5 16 3f 3b 01 30 b9 a7 de 5b bd 56 6b 00 be
       0.5884578 -0.00016785126 -0.053679135 -0.12540945
000130 77 db 18 80 30 3d 24 bd b4 9f 01 be df c0 e3 3f
       -2.282781e-39 -0.040097415 -0.12658578 1.7793235
000140 3b 20 15 be 89 af 17 be a8 49 02 be bb e6 95 bc
       -0.14563076 -0.14813055 -0.1272341 -0.018298497

fc3.weight f4 [10, 84]
000000 6c 3e 06 bc 78 63 e1 a5 a5 2b c3 bc 91 36 5d be
       -0.0081935935 -3.909868e-16 -0.023824522 -0.21602847
000010 bb 38 96 bd cc 7b 06 80 c9 6c 0c 80 16 9e c7 af
       -0.07335039 -5.95423e-40 -1.141051e-39 -3.6310216e-10
000020 d9 88 8d 3d 0d 47 ae bd 72 37 26 be 81 48 64 bd
       0.06910867 -0.085096456 -0.16232088 -0.055733208
000030 d5 73 f0 bd 6d 38 4b bd 9e 42 c0 bd ea 98 6f bd
       -0.11740843 -0.04961436 -0.09387706 -0.05849544
000040 d6 d7 99 bd 1f 0a 15 bd 5d de 9e bc 6d 9d ee bd
       -0.075118706 -0.036386605 -0.01939314 -0.1165112
000050 90 8f 04 bd a6 9a 5b be 0d 55 90 be 88 0d 8a be
       -0.032363474 -0.21445712 -0.2818989 -0.2696345
000060 fc 81 91 bd e7 d6 5f b9 d3 31 0b bc 8f ad 86 bc
       -0.07104871 -0.00021346995 -0.008495766 -0.016440181
000070 30 62 e2 bd 6a c5 49 bd b0 29 40 bd 3b 85 9d bc
       -0.11053884 -0.049260534 -0.046914756 -0.019228568
000080 da e6 f0 bb 66 6f 05 be b0 0b f9 bb 2a ff 3f b2
       -0.0073517384 -0.13030776 -0.00760027 -1.1175681e-08
000090 e6 83 c9 bd fb f6 c6 bc 8b e2 97 bd 5d 6f 8e bd
       -0.09839611 -0.024287691 -0.074162565 -0.069548346
0000a0 7b 34 17 80 4a 6c 99 3d 1d 36 c0 be 03 8c fd 3c
       -2.131043e-39 0.074913576 -0.37541285 0.030950552
0000b0 d3 45 27 3d df 4e e5 3d be ef 24 bd dd 49 8e be
       0.040838074 0.11196684 -0.0402677 -0.27790728
0000c0 22 af a1 be 31 24 7b 31 22 48 5f bd 28 a5 82 3c
       -0.31578928 3.654588e-09 -0.05451215 0.015947893
0000d0 1c 0d c1 bc e0 cc b8 bd 50 6d 28 be 8f 1c 0f 00
       -0.023565821 -0.09023452 -0.1644795 1.387777e-39
0000e0 44 6e d2 07 60 e1 12 bd 6f f1 2e be 90 b8 42 bb
       3.1662096e-34 -0.035859466 -0.17084287 -0.0029712059
0000f0 b1 cb 8f be d9 24 7a be f6 a7 01 99 fe 83 43 be
       -0.28085092 -0.24428119 -6.703063e-24 -0.1909332
000100 16 2b 3c be 40 60 0e be 16 03 19 3e 82 de c4 11
       -0.18375811 -0.13903904 0.14942583 3.1060479e-28
000110 2d 5c d9 bc 9c ac fb bd 55 00 c7 b9 59 f2 4f bd
       -0.02653321 -0.12288782 -0.00037956485 -0.05076823
000120 69 e5 7d bc 13 d9 f3 3b 37 78 10 bb 1d 37 a3 3c
       -0.01549659 0.0074416487 -0.002204431 0.019923741
000130 a3 66 15 92 92 8a 3a 3d 2d 99 20 be 84 96 bf bb
       -4.714262e-28 0.045542307 -0.15683432 -0.0058468003
000140 2b 78 d8 bd 3d 1c 94 be 30 ea 58 be 20 43 ad bd
       -0.10569795 -0.28927794 -0.21183085 -0.08460069
000150 14 33 17 3c fc c5 7f 37 b7 e7 e7 bd 38 29 b9 bd
       0.009228487 1.5245281e-05 -0.11323493 -0.09041065
000160 52 1d a3 3c f7 d3 0f 19 3a f3 08 80 d9 08 c5 ba
       0.019911442 7.435733e-24 -8.21937e-40 -0.0015032544
000170 de 55 13 be 91 a2 7b be df 73 f4 bd e4 9b 83 bd
       -0.14388224 -0.24573733 -0.11936163 -0.06426218
000180 a5 70 d7 bd a1 f1 24 3e 66 48 f3 bd 96 12 b1 be
       -0.10519532 0.16107799 -0.11879043 -0.34584492
000190 9d 76 5c be 97 8d d6 bd de ca 16 3c 67 9d 14 be
       -0.21529622 -0.10476225 0.009203641 -0.14513169
0001a0 4b ae fc 3c 1d 4a dc bc 06 c0 5d be 04 85 14 be
       0.030844828 -0.026890809 -0.21655282 -0.14503866
0001b0 28 7a 0e 3d c0 a2 6b b0 13 27 11 bd 13 1e aa bc
       0.034784466 -8.5723784e-10 -0.035437655 -0.020766294
0001c0 90 8f e4 bd a6 56 dc bd c0 97 fd bb 6d 38 ee bc
       -0.11160195 -0.107587144 -0.0077390373 -0.02907964
0001d0 3f e6 44 bc d1 ee 31 be a1 f4 af bc df 21 72 a4
       -0.012017786 -0.17376257 -0.021478953 -5.2504075e-17
0001e0 1f 8e 97 bd 2c 17 4c bd aa 33 e6 bd c4 2e 94 bd
       -0.07400154 -0.049826786 -0.11240323 -0.07235482
0001f0 9d 1e 15 80 31 e7 02 be 5e 9a cf bd 75 18 2f bc
       -1.939527e-39 -0.12783505 -0.10136865 -0.010686983
000200 8c e8 a7 bd b2 46 70 bd 04 e9 16 be 1e 98 b7 be
       -0.08198652 -0.05866117 -0.14737326 -0.35858244
000210 27 d3 0e be 92 40 00 b3 3f a9 f3 bd 8e 97 ca bd
       -0.13947736 -2.986105e-08 -0.118975155 -0.09892188
000220 04 1c bf 3c b9 29 b2 3d 16 80 05 bf fb fd 65 a2
       0.023328789 0.08699364 -0.5214857 -3.1169743e-18
000230 ba 14 f3 84 23 77 80 bd 04 29 0d be dc 83 fc ba
       -5.714806e-36 -0.062727235 -0.13785177 -0.0019265371
000240 92 b9 36 be 39 e7 2f be 8a 2a e8 14 7b 4e 64 be
       -0.17844227 -0.17178048 2.3442792e-26 -0.22295563
000250 13 77 29 bc 9c 0b 31 be c2 91 02 3e 38 86 1f 00
       -0.010343331 -0.17289585 0.12750915 2.895049e-39
000260 9f 68 39 be 36 cb a3 bd e3 d2 a5 3b a5 a9 3e bd
       -0.18106316 -0.07997744 0.00506054 -0.046548504
000270 e8 0a f2 bd 0a 90 3d bb 7d c8 70 bc 22 54 9c bb
       -0.118184865 -0.0028924965 -0.014696238 -0.0047707716
000280 2d e4 03 00 bd 42 a3 bd f8 0f f2 bd 11 dd e7 3a
       3.5736e-40 -0.07971714 -0.11819452 0.0017689784
000290 27 06 c7 bd c7 93 cd bd ba 34 8d be eb a5 e7 bd
       -0.0971797 -0.10037952 -0.2757929 -0.11310943
0002a0 1f 99 d6 3c 29 36 1a 3a b5 40 5d bd 33 71 8d bd
       0.02619606 0.0005882704 -0.054016788 -0.06906357
0002b0 34 12 65 3d 3b 5f 05 80 d3 fe a3 2f 3a e9 cc 3b
       0.055925563 -4.9334e-40 2.983059e-10 0.0062533887
0002c0 22 9b 09 be 56 9f 8a be 93 26 32 be 57 82 80 bd
       -0.13438085 -0.2707469 -0.17397527 -0.0627486
0002d0 a8 7c df bc c4 bb 25 be 10 ac ad be 1b 47 12 3d
       -0.02728112 -0.16184908 -0.33920336 0.035712343
0002e0 30 62 e8 3b 9f 95 cb bd 4d 6a 0b be a1 80 b1 bc
       0.007091783 -0.09940647 -0.1361477 -0.02166778
0002f0 d4 9b 4a 3c 44 27 be bd 68 bd 3b be 9a f2 fc bc
       0.012366254 -0.09284833 -0.18333972 -0.0308774
000300 f1 c0 c7 bd ac 3d a5 36 39 c3 26 bd 9a f6 57 bd
       -0.097535975 4.9245627e-06 -0.040713523 -0.052725412
000310 c1 e9 26 be e7 87 18 bd 2e 7b e3 bc b8 b7 85 ba
       -0.16300108 -0.03723898 -0.027768698 -0.0010201847
000320 bf 61 13 be 41 4d 4d be 4c 32 af 3d 9c 4a e6 b8
       -0.14392756 -0.20049001 0.08554515 -0.00010981152
000330 5a c2 42 be e2 b6 09 bd aa 01 b4 bd 4a 2b 37 be
       -0.19019452 -0.033621676 -0.0878938 -0.17887607
000340 a0 c4 19 00 c3 f6 e6 3d b8 90 f2 be 8e 8c 9d bd
       2.366423e-39 0.11277535 -0.47376037 -0.07692824
000350 96 6b cc bc d0 e4 be b8 e5 4e 22 be b5 0e 96 3d
       -0.024953645 -9.102526e-05 -0.15850408 0.07327024
000360 d0 eb c3 be 02 84 0e 83 c0 58 2a bd 3a 45 9d bb
       -0.38265848 -4.1881587e-37 -0.041588545 -0.004799512
000370 c0 8e a6 bd 07 77 52 bd bb 55 35 be de 18 43 31
       -0.08132696 -0.051383045 -0.17708485 2.839037e-09
000380 15 d0 f8 95 42 5a 7b 3c b3 13 58 3c d4 cc 26 bc
       -1.004947e-25 0.015341343 0.01318829 -0.010180671
000390 73 3e 44 3c 40 eb 98 bd 5f fc 6f 1b 42 37 2a be
       0.01197778 -0.074667454 1.9851162e-22 -0.16622642
0003a0 49 ee 08 bd 2c 75 cc bd 7c 77 7a bd 97 ef 0b 2b
       -0.03343037 -0.09983286 -0.061149105 4.971522e-13
0003b0 b4 a5 95 bd a2 da 8f be f0 94 35 3a 8e 04 2c be
       -0.07306996 -0.2809649 0.00069267955 -0.16798612
0003c0 f0 ee 84 3c dc df aa b8 61 c6 b4 bd 1d 96 09 be
       0.016227216 -8.147929e-05 -0.088269 -0.1343617
0003d0 20 cf df b4 5d ca 8f bc f9 0d 5d be 40 88 95 3c
       -4.168769e-07 -0.017552549 -0.21587361 0.018253446
0003e0 2c 0d a4 3c 54 e8 24 bb 93 ea ca be d2 8b a6 bd
       0.020025812 -0.0025162892 -0.3963209 -0.08132137
0003f0 5a 8a d5 bd 2f 72 b7 3a 5a e2 be bc 72 2a 7e be
       -0.10426779 0.0013995821 -0.023301292 -0.24820879

fc3.bias f4 [10]
000000 34 30 15 bf 82 c0 57 be bf 31 d0 bc c7 3c 05 3f
       -0.5827668 -0.2106953 -0.025414346 0.52045864
000010 9f 99 6b 3e f5 c3 88 be 80 11 39 3e 55 9b 15 bf
       0.2300782 -0.26712003 0.18073082 -0.5844014
000020 01 2b bf 3e 50 7d de 3d
       0.37337497 0.10863745
